model5.pt (torch, 205313 bytes, 12 tensors)

weight f4 [50, 784]
00000000: 7b9b 7abc 909f 1e3d de5e 133d f476 183d
00000010: b52b a13c bf94 88bb 171b 083c f2c0 c8bb
00000020: 981b d6bb b47f ceba ecb8 f73c dc4b 313d
00000030: 918e 1e3d 89f1 103d 9ae4 483d b8e4 4abc
00000040: 1e3b 433d 96e1 2f3d 748e 493c 2567 65bc
00000050: f0ef 363b f1c8 293c b234 493d 18d2 203d
00000060: dba1 7e3a ceca 593c 067e 48bc 913a e0ba
00000070: 2140 59bc 3426 6abc a598 933c 2021 813c
00000080: a69b fe3b e3b9 e23c 6eb5 303d 007f 453c
00000090: a015 82bc abe3 2e3c ab6e 11bc 5e73 bc3a
000000a0: bc3f 053c 7f4f 3d3d 1791 113d dbf7 243d
000000b0: 7453 cb3b 7ea5 78bc c377 273d b1cc d23c
000000c0: 4472 fd3c a504 ed3c 8d78 11bc d466 23bc
000000d0: 4f12 a5bc 0e43 7bbc db1f c53c 7790 bc3c
000000e0: 3e85 a7bb 4979 b73c a9cd eb3c 1044 183d
000000f0: 3238 4a3d c228 0cbc b683 50bb 1c23 46bc
00000100: ef28 853c 1182 8a3b 8b47 bb3c f3b8 803c
00000110: e332 e9ba f02d 9b3c 5a89 743c 9eb5 dabc
00000120: 5e45 643c 6645 eebc b2c3 edbc 61e5 363d
00000130: f8a9 c23c 51ee 59bc e072 e23c 9d42 b63c
00000140: 61b8 003d 3324 ed3c 31f7 b83c 4b98 f33c
00000150: 164d 803c 308f 7a3c b316 06bb 4ef5 c83b
00000160: 84ab a6ba c8a5 723c 424d 533c bdbc 86bc
00000170: 3a54 99bc 9f09 d83c 9f52 33bc 8fed 6c3c
00000180: 6b24 a23c f041 9bbc aaca 2abd 4bc6 15bd
00000190: 5514 dcbc 4f1e 19bd efc6 35bd e8bd a7bc
000001a0: c1d6 0dbd e9c6 02bd 2e5c cbbc 3edd 25bc
000001b0: 1e4b c2bc 3275 873b cb9c 973c e217 263d
000001c0: 272d a4bc 0270 493c 9c1e eab9 78c7 293d
000001d0: 5fe7 983a 058e 233d eb7b 823c f9db ff3b
000001e0: eaa5 c7bb 5112 2ebd 65f1 35bd d4f0 443c
000001f0: 45c0 4ebc 6eb9 3f3b abc8 873d 4177 db3d
00000200: 652c b83c e9b2 ed3c d1ea 73b9 2261 7b3c
00000210: 3fe3 34bd 8481 d23c 6cf8 d63c 8f1e ffbb
00000220: 2564 d43c c12f a5bb 4af0 1f3c c57a 253d
00000230: 14a7 2a3d 714c e73c 449d 053d 20c1 0abc
00000240: 88e2 17bc 9335 98bc 45a8 a63c 05ab 893b
00000250: 505f 12bd 4dfb 28bd ad0a 0cbb 54cf 7dbb
00000260: 2308 73bc d5d2 9cbc 1c14 14bb bdfd b9bc
00000270: 16e2 49bd 0ede 12bd d12b 6cbd 4490 8fbd
00000280: 7b3f 4dbd 6856 a7bc b2f9 813c 9256 e23c
00000290: 09ed 093c 69d2 513c d23f c23c 1854 e0b9
000002a0: 3f9a 9bba ab9f 6ebc 0263 e83c 980b 32bc
000002b0: b853 4d3c d6b4 c0bc aeac 10bd 9039 0dbd
000002c0: a729 4dbd 3865 77bd 61a3 32bd 628b bf3c
000002d0: bac0 31bc c23e babb 6c74 57bc 7d7f 88bd
000002e0: ed8a 18bd 97e1 44bc 463e 85bd c9f9 41bd
000002f0: f7d0 a7bc 849f e8bb 3d06 f63a cf2e 7e3b
00000300: 2599 883d e8a1 df3b 9a81 1c3d a1ea c8bb
00000310: 921a 3d3c 1437 363c b1df 6fbc c90d 553d
00000320: 1b5a 203c a579 6f3b f963 c23c 0a71 82bd
00000330: 378d afbc 9aa5 24bc fad9 c438 c6ed 313c
00000340: a494 ea3a f016 6dbc a6e3 6a3d c7be d63c
00000350: 5a9a 303d 7a0a 9a3c e881 debc a0ed 8e3c
00000360: 1a15 5b3d 5bd2 1cbc 86cd 6b3c 5332 853b
00000370: 1ad2 693c 5f2c 8b3b c177 993c fbca 3dbc
00000380: 955f 093d 848d db3c 1c92 f13c 46fe 173d
00000390: 5af6 c93b f167 b6bc 4f66 11bd 17d5 6b3b
000003a0: 3d1a 45bc 9065 b6ba c215 38bd cd97 31bc
000003b0: 4ccd 223d d63b d53c a751 a53d 11d9 d83d
000003c0: e6e0 3a3c b643 283d e12e 6ebc b9b0 67bc
000003d0: 34b4 9dbc 113f c43c 3ac2 d53b 4cdd 9abc
000003e0: 95e5 253d efc5 a73d 56fa 083d 09c9 0b3d
000003f0: 685e 96bc eea0 173d 6e76 8fbb c2bd 473d
-0.0152958585 0.03872639 0.035979144 0.037222818 0.019674161 -0.0041681225 0.00830724 -0.0061265165
-0.006534051 -0.0015754611 0.030239545 0.043285236 0.03871018 0.035386596 0.049046136 -0.012383632
0.0476638 0.042939745 0.01230203 -0.014001642 0.002791401 0.01036285 0.04912252 0.03926286
0.00097134494 0.013292981 -0.012237078 -0.0017107298 -0.013259918 -0.014291335 0.018017123 0.015762866
0.0077700196 0.027676528 0.043141775 0.012054205 -0.015879452 0.010674397 -0.008876483 0.0014377644
0.008132871 0.04621839 0.03553876 0.040275436 0.0062050167 -0.015176175 0.040885698 0.02573237
0.030938275 0.028932879 -0.008878839 -0.009973247 -0.020150332 -0.015335811 0.024063041 0.023018105
-0.0051123193 0.0223967 0.02878459 0.037174284 0.04937 -0.008554639 -0.0031816787 -0.012093332
0.01625487 0.004226931 0.022861263 0.01571319 -0.0017791655 0.018942803 0.014925325 -0.02669793
0.013932554 -0.029085826 -0.029023979 0.044652347 0.023762688 -0.013301448 0.027642667 0.02224856
0.031425837 0.028947925 0.022578808 0.029735705 0.015661757 0.015292928 -0.0020460307 0.006132758
-0.001271591 0.014810033 0.012896838 -0.01644742 -0.01871692 0.026371775 -0.010944991 0.014460935
0.019792756 -0.01895234 -0.04169718 -0.03656606 -0.026865164 -0.03738242 -0.04437917 -0.020476297
-0.034628633 -0.031927977 -0.024824228 -0.010123549 -0.02371746 0.004133844 0.018507382 0.04055012
-0.020041062 0.012294771 -0.00044654764 0.041449994 0.0011665634 0.039930362 0.01592823 0.007808205
-0.0060927765 -0.042497937 -0.044419665 0.0120203085 -0.012619083 0.0029254812 0.06630071 0.10716105
0.022482106 0.029015975 -0.00023261762 0.0153429825 -0.04416203 0.025696523 0.026241504 -0.0077856253
0.025926659 -0.005041093 0.009761879 0.040400285 0.041663244 0.028234692 0.032620683 -0.008468896
-0.009270318 -0.018580234 0.020343909 0.0042012953 -0.03573543 -0.041255284 -0.0021368668 -0.0038728314
-0.014833483 -0.019143501 -0.0022594994 -0.022704 -0.049287878 -0.0358563 -0.057658974 -0.07009938
-0.050109368 -0.020426944 0.015866134 0.02762917 0.00841833 0.012806513 0.023712073 -0.00042787264
-0.001187153 -0.014564435 0.028367523 -0.010867022 0.012532167 -0.02352373 -0.03532093 -0.034478724
-0.05008855 -0.060399264 -0.04361284 0.023381893 -0.010849172 -0.005683751 -0.013150316 -0.066649415
-0.037241865 -0.012016675 -0.06506018 -0.047357354 -0.020485384 -0.007099094 0.001877017 0.0038785224
0.06669835 0.0068247207 0.038209535 -0.0061314856 0.011541979 0.01112153 -0.0146407345 0.0520151
0.009787108 0.0036541012 0.023729311 -0.06369217 -0.021429641 -0.010049248 9.3866096e-05 0.010859912
0.0017897082 -0.014470801 0.05734601 0.026214017 0.04311595 0.018803824 -0.027161554 0.017447293
0.05348692 -0.009571637 0.014392262 0.004064837 0.0142712835 0.004247233 0.01873386 -0.011584039
0.03353842 0.026800878 0.029488616 0.03710773 0.0061634006 -0.02226636 -0.03549796 0.0035985166
-0.0120301815 -0.0013915766 -0.044942625 -0.010839415 0.039746568 0.026029509 0.080722146 0.10588277
0.011406159 0.0410802 -0.014537544 -0.014141255 -0.019250967 0.023955854 0.0065233978 -0.01890435
0.04050215 0.0819205 0.033441864 0.03412727 -0.018355563 0.03701871 -0.0043781316 0.04876495

bias f4 [50]
00000000: 876a 433c 0a63 15bd 66b3 d83c a83c 0cbd
00000010: 626e e53b 614d 633c e0c5 9e3c 4251 1bbd
00000020: d3f5 a3bc 52a9 ab3c 2758 edbc b2ed 3bbd
00000030: 2fb9 ea3b b8f5 c6bc 2f95 f7bc 0553 c43c
00000040: dd65 1abd 6d79 503c 03f6 213b 3ae5 0d3d
00000050: f0d5 593c 3564 a23c 2062 22bc 269b ad3c
00000060: e68c eebc 7df2 9b3c 31ed e83c 4623 24bc
00000070: 2bde 53bc 156e c8bb f50a 64ba 6477 793c
00000080: 2cf5 d1bc ac6d a1b9 704e ce3c 65c0 a8bc
00000090: 2c66 a8bc bc96 87bc 0ecb 363c 5da0 2d3c
000000a0: a22a 033d bce6 683c 16a5 d5bb d638 f33c
000000b0: ff01 183a 7ccc b2bc e4ab bbbc 2fb4 b43c
000000c0: dbf4 4ebc 7548 803a
0.011927254 -0.036471404 0.026452731 -0.034237534 0.007001684 0.013873429 0.019381464 -0.03791929
-0.020014679 0.020954762 -0.028972698 -0.04588098 0.007163189 -0.02428709 -0.030222503 0.023965368
-0.0376948 0.012724263 0.0024713285 0.034642436 0.013295636 0.019823173 -0.00991109 0.021192145
-0.02911992 0.019036526 0.028433414 -0.0100181755 -0.012931387 -0.0061166384 -0.00086991425 0.015226219
-0.025629602 -0.00030790025 0.025183886 -0.020599553 -0.020556532 -0.016551368 0.01115681 0.010597316
0.03202308 0.014215168 -0.006519924 0.029690187 0.0005798637 -0.021826021 -0.022909112 0.022058574
-0.01263162 0.0009787219

weight f4 [50, 50]
00000000: d416 573d d79e fd3d 0c49 c73d 3e6d a63d
00000010: e097 d2bb b098 a03d 9c39 37be 157d 2fbd
00000020: 8b87 00be 71c2 723d 4b87 e9bd fdba 6a3c
00000030: 3158 a33d 8662 6dbd 81fd 333e 5ad7 d8bc
00000040: c764 e43d 1018 9f3c fc1f 08bd 146f 233c
00000050: 4d43 9abd 99c5 0e3e b254 a2bd 52d5 0ebe
00000060: eb87 8d3c d3c8 043e 1a12 893c 3e89 9abd
00000070: d9d5 b2bd 2b48 93bc 50d6 503d 51ce b0bd
00000080: 992a 9abd b252 ae3c c02f 103d a318 49be
00000090: b5b0 9d3d 1f26 87bd 9feb 4c3d 3ace 003e
000000a0: c741 193c 2cee 52bd d831 f13d 290a f93d
000000b0: edf0 293d 3165 85be 9b53 2b3d 8138 e7bd
000000c0: c9c2 753d 6f38 6f3e e843 dabd 5ddd bfbd
000000d0: 4d05 0f3e a12d bc3d e8fc d8bc 0b8a 6f3e
000000e0: 6f7d f8bd 5506 13be 22c4 153c 578a b8bd
000000f0: 8a2f 053e 0461 b1bd 726d e0bd 30a1 253c
00000100: 654b 6fbd f682 b53d 6724 a8bb 85be b13c
00000110: 6d7d a43d 28c2 0b3d eb99 1bbc bdcf c0bd
00000120: bc45 813c 10c5 f73c b20c 06bc f6af 3c3d
00000130: 6647 e6bc 7c31 aa3d abfc 5b3d e874 04be
00000140: eef8 30bd f7e0 9abd 0f02 f9bd 76d9 703b
00000150: 7ded 883b 21d4 303d fd21 553d 8eea 683d
00000160: dca0 1ebd d70a 89bd d77a 5abd f053 00be
00000170: 036c 883d 5461 28bd 2340 12bd 936f 6b3c
00000180: 2a58 9e3d 0966 87bd 375f 953d ae92 5ebd
00000190: 6e5b 7d3e 6891 74be 07ac 7a3d 0877 b1bd
000001a0: f55b 99bd e256 393e 8c05 a03c 1d3c 6a3d
000001b0: a8fb 0e3e b462 e93c ebd4 bbbc a030 82bd
000001c0: 6ad5 663c bc02 e43b 4421 85bd 6c32 023c
000001d0: 81e5 3b3e c542 d63d 1ef2 c5bd df04 8d3d
000001e0: 7c26 143d 48a8 543e e0a6 04be f46a d43d
000001f0: 5c3c 2fbd f303 0d3e 863c 4a3e 9f2a fabd
00000200: 74af 293e 5e30 b5bc 44d8 463d 3829 26be
00000210: c0f5 e5bd 99a6 653d 03c9 e5bc 9fb3 433e
00000220: 49fd 70bd 90f3 063d 6df5 b33d d97b a53c
00000230: 27b2 febd 5a55 1b3c db99 713e f59b b53d
00000240: e7d4 6b3e 0f44 8abd 4c21 4cbe bddf b1bd
00000250: 6a3f 97bc 03e6 9dbd 9582 1dbd 127d d9bc
00000260: d1d0 4abe 7dae 3f3e 69e6 fbbc c7d2 a63d
00000270: 9c13 95bd ba59 1d3a 94c4 9f3d 3f57 e9bd
00000280: ea03 c1bd fcc6 05bc aee5 ec3d 2d44 373d
00000290: 19de 1c3e 8888 623e 805d 29be 3982 dcbd
000002a0: a8b2 90bd f2bc ae3d 3bcb 01be 45bd a9bd
000002b0: f378 f03d 0423 19bd 094e c7bc 25d4 99bd
000002c0: 368a 35be e8b5 dcbd 20b1 40be d4e9 993d
000002d0: a367 2c3e 44a3 ebbd 23eb 213e 166c 823d
000002e0: f518 38bd a5d7 fa3c 927e 23be e477 2f3d
000002f0: 2b95 483e 7d21 edbd 1c09 293e 8468 363d
00000300: d6e5 bc3d a248 98bd e3c8 21bd 2420 5e3d
00000310: d727 26be 6292 d8b8 b956 943d d943 183e
00000320: 28c2 653d f191 ae3d 0f33 ad3d 8da6 de3d
00000330: c1dc 8bbd edb7 ca3d 45f2 52be c20a 6cbc
00000340: afe8 03be 7525 1f3e 31f6 5b3e c1e6 e73c
00000350: cabc 22bc 8b4c 86bd 9d37 65bd 3dbf ef3d
00000360: 0660 813e 79bd bc3e 9312 54bc 6b82 06be
00000370: 4d38 f63d 0ed0 203e 933e 3cbd 646d d03d
00000380: 3599 36be bffb 47be d764 27bb 8265 fcbd
00000390: 60b1 303e 7d78 543d 30ff 113c adc2 3a3e
000003a0: f444 3cbe dc3a e1bc a45a 67bc dc3b 26be
000003b0: d0e6 e93d d37d a3bd 9937 bbbd 1a30 623e
000003c0: bdb0 e5bc 3c12 533c e57b c33d 6e39 70bd
000003d0: 8b27 643d 2732 073e c536 41bd 8a07 5dbc
000003e0: b3e6 163e 23ba b53c 9feb fbbd 3225 3f3d
000003f0: 6551 313b 45d0 f0bd 13f3 29bc 218c 483e
0.052512005 0.12383812 0.097307295 0.08126305 -0.0064267963 0.07841623 -0.1789307 -0.042843897
-0.12551706 0.059267465 -0.11402758 0.014326808 0.079758056 -0.057955287 0.17577173 -0.026469875
0.11152034 0.019420654 -0.033233628 0.009975214 -0.07532368 0.13942565 -0.079263106 -0.13948563
0.017276725 0.12967233 0.016732264 -0.07545708 -0.087321945 -0.017978748 0.050985634 -0.08633102
-0.07527656 0.021279667 0.035201788 -0.19638304 0.0769972 -0.06599068 0.050029393 0.12578669
0.009354061 -0.05149667 0.11777085 0.12160141 0.04148953 -0.26053765 0.04182778 -0.11290074
0.060000215 0.23361371 -0.10657483 -0.093683936 0.13966866 0.091883905 -0.026487783 0.23392503
-0.121332996 -0.14357884 0.009141 -0.09010761 0.13006416 -0.086610824 -0.10958375 0.010109231
-0.05842151 0.088628694 -0.0051312926 0.021697292 0.080317356 0.03412071 -0.009497146 -0.09414623
0.015780322 0.030245334 -0.008181738 0.046066247 -0.028110217 0.0831022 0.05370776 -0.12935221
-0.043206148 -0.0756244 -0.12158596 0.003675071 0.0041787014 0.043171052 0.052034367 0.056864314
-0.038727626 -0.06691521 -0.053339805 -0.1253202 0.066612266 -0.041108444 -0.035705697 0.014369863
0.0773166 -0.066112585 0.072935514 -0.054339103 0.24741909 -0.23883593 0.061199214 -0.086652815
-0.074882425 0.1809955 0.019533895 0.057186235 0.13963187 0.028489448 -0.022928676 -0.06356931
0.014088968 0.006958334 -0.065004855 0.007946592 0.18349268 0.10461954 -0.09665321 0.06885695
0.036169514 0.20767319 -0.12954283 0.10371962 -0.042782173 0.13771038 0.1974965 -0.122151606
0.16570836 -0.02211779 0.04854609 -0.16226661 -0.11228514 0.056067083 -0.028049951 0.19111489
-0.0588353 0.032947123 0.08787046 0.020200657 -0.124363236 0.009480799 0.23593847 0.08867637
0.23030435 -0.067512624 -0.19934577 -0.08685253 -0.018462855 -0.07709887 -0.03845461 -0.026548896
-0.1980622 0.18718906 -0.030749517 0.08145671 -0.07279131 0.0006002445 0.07801166 -0.11393594
-0.09424575 -0.008165117 0.115672454 0.044742752 0.15319099 0.22122395 -0.16539574 -0.107670255
-0.07065326 0.08532132 -0.12675183 -0.082880534 0.11741819 -0.03738691 -0.024329202 -0.075111665
-0.17728505 -0.10776883 -0.18817568 0.07515302 0.1683641 -0.1150575 0.15812354 0.06368272
-0.044945676 0.030620405 -0.15966251 0.042838946 0.19588153 -0.11578653 0.16507381 0.044533268
0.09223525 -0.074357286 -0.03949822 0.05422987 -0.16226135 -0.000103269485 0.072431035 0.14869632
0.056093365 0.0852393 0.08457004 0.10871611 -0.06829215 0.09898362 -0.20600231 -0.014406862
-0.1288173 0.15541632 0.21480633 0.028308274 -0.009932706 -0.06557568 -0.05596124 0.11706398
0.25268573 0.36863306 -0.012943882 -0.13135688 0.12022457 0.15704367 -0.045958113 0.101771146
-0.17831881 -0.19529627 -0.0025542283 -0.123240486 0.17255163 0.05187272 0.008910939 0.18238325
-0.18385679 -0.027493887 -0.0141207315 -0.16233772 0.11420977 -0.079829834 -0.09141464 0.22088662
-0.028038377 0.012882765 0.095451154 -0.05864852 0.055701774 0.13202725 -0.047171373 -0.013490567
0.14736442 0.022183483 -0.123008005 0.04666633 0.0027056572 -0.11758474 -0.010372895 0.19584705

bias f4 [50]
00000000: 8a4c 04be 9c77 2bbc f7e0 e23c 157e 343e
00000010: 5c0e 34bd fb51 343e 45c9 b93d 220c 063d
00000020: dbf6 f1bd 24fc 663c b307 17bd 3dca 0e3d
00000030: 43c9 1d3e c714 10be 3c7a 0a3e 131a 27bd
00000040: 1848 83bd 1d4b f7bd ed98 77bd f0ee 90bd
00000050: 94d4 aebd 7c05 8b3b bca2 38bd 6bdb d03d
00000060: f313 3d3e 678e e43c 0886 e03b 8a6d c2bc
00000070: 4e4c 4cbd e683 4dbd 7209 363d bcf1 86bd
00000080: fd34 223d 1be3 eabd 1599 e5bc 8428 d63d
00000090: 2158 8b3d 13ea 91bd 1dfc 103e 2265 d83d
000000a0: 58ef 15be 6cfa 5b3b 8d9f eebd 2ab3 df3d
000000b0: d67a 07be 42b7 25be 79dc 58bd a31e ff3c
000000c0: 5d4a aebd 6ad6 013e
-0.12919822 -0.010465529 0.027695162 0.17626221 -0.043959007 0.17609398 0.09071592 0.032726415
-0.11814662 0.014098201 -0.036872577 0.03486084 0.15408807 -0.14070426 0.13523191 -0.04079635
-0.06410235 -0.120748736 -0.060448576 -0.07076824 -0.0853664 0.004242597 -0.04507707 0.10198101
0.18464641 0.027899934 0.0068519153 -0.023733873 -0.049877457 -0.050174616 0.0444426 -0.06589076
0.039601315 -0.11469098 -0.028027097 0.104569465 0.06803919 -0.07124724 0.14158674 0.105661646
-0.14642084 0.003356601 -0.11651526 0.10922845 -0.13230452 -0.16183189 -0.052944634 0.031142538
-0.085102774 0.12679449

weight f4 [50, 50]
00000000: 7dc1 e53d 364d 88bc 7ecc f43d 7db9 c1bd
00000010: 724c a63d 10c7 7d3d 0b68 c43d a3a5 27bd
00000020: 9d35 e23c d9c7 0cbe 9ce8 223e e464 6d3e
00000030: c95d 523d b6a9 493e 9e90 7d3d 6c3d bdbd
00000040: 8dfc edbd e76f a43c 3106 073d 64f0 28bd
00000050: 31d9 7e3d b0ab 4e3c 6065 9d3d aeed 6db9
00000060: 6857 acbc 0529 cf3d c9d7 163d 3708 1fbd
00000070: 8279 fabb d79a 993d 0e11 13be 6008 b4bd
00000080: 2dc4 29bd fc83 263e 9d1c 073e 89aa 57bc
00000090: d689 96bd a1fd 2e3d e602 663d 818a fabd
000000a0: 9cd4 1a3e 7855 a53d dd42 043d e231 60bc
000000b0: d898 f3bd d712 f3bd e678 aa3d 06fa 93bd
000000c0: c1e9 d8bd 262f a5bc 74c5 f93d fe08 133d
000000d0: 4cf6 b9bc 5496 d7bd 351e 123e aa5b 1c3d
000000e0: ea98 d73d af9e 01be cb21 453d cc06 013e
000000f0: ae44 95bd 6211 fe3d 5ca0 1cbe bafd ce3c
00000100: db1f 183e 466a d1bd dced 7abd b482 d13d
00000110: 3cda 1b3d 1f7a 1e3e 0fef f2bc 0735 1b3e
00000120: 2980 dbbc 7ee9 06be f6ab 9b3c 7bce 423e
00000130: f3a7 ae3d 27ce 02be e1c4 1d3a a96a cb3d
00000140: 8181 2f3e b578 c6bd 8a90 203d eeaa fc3d
00000150: 46e1 90bd 343b 343d 8a63 24be 5c11 873d
00000160: 1c93 12be afa5 923d 85d1 353e 40d5 78bd
00000170: 87c3 3a3e 52d5 bcbc 3173 02bd e152 923d
00000180: edbb ea3b 7414 9bbd 5f75 9a3b 34f2 49bd
00000190: e197 713d fd88 a5bd b83d 7d3d da66 0f3e
000001a0: 1114 09be 7cff 1d3d a542 35be 1a21 d63d
000001b0: 1f69 cdbc c23b d8bd 66db ffbd 8998 15be
000001c0: ee24 f83c d844 e7bc 14c0 0f3e c476 0bba
000001d0: 6d9f f1bc 4597 423e 9457 93bd 48c7 1d3e
000001e0: 1f2b 9cbd fae6 d33d 4005 12be 265c 363e
000001f0: dd48 acbd c765 5f3d e754 6a3c d700 24bd
00000200: 9bc8 93bd 94ae aa3c 7e1a e13d f972 d23d
00000210: 7236 1d3e bc3a 0b3d 5c90 da3d 354c 833d
00000220: 017d 98bd de25 e03d 052b e53c f6c8 173d
00000230: c65f b9bd 5bca ddbd 9f84 64bd afe8 24bc
00000240: a8f9 553d 91b5 e83d 93d5 45bd 5a29 313d
00000250: 7458 2bbe f7da 153e 6cb4 90bd 4b94 bb3d
00000260: dcc3 07be a10d 553e 9464 193d dbd3 8ebc
00000270: 0219 1abe ff4e f8bd 50e0 e2bb 5837 c43d
00000280: 6a64 08be aa5b 35be 35e5 ee3d e98b 44be
00000290: e70f c9bc d332 093e a274 c1bd 96f3 f53d
000002a0: fc3b 183d ca16 6e3e f7ae d9bd d190 323e
000002b0: 7b8b 66bd 6b9a 4ebd 89fa 8a3d 40a8 2b3e
000002c0: 3c59 32be d5c4 443e a92d 26be ea8e e93c
000002d0: 8801 6c3e e58e 01be d8a4 b63d c3ad 1d3e
000002e0: 000c a4bd 9425 bdbd 174d ee3d e727 0d3d
000002f0: a9a1 44be 9081 cc3d 9a7b 4cbe 14ed 1ebb
00000300: 7617 a03d 7b2e ec3d 0557 47bd 3101 13bd
00000310: c958 88bd 1808 1abd 2f3e 52bc 43fb 5a3e
00000320: e93d f23c 19b0 dd3d 8cab 113e f153 5e3e
00000330: 4f7a f43d 30a0 bebd 813c 4e3e e928 0f3e
00000340: 0454 1bbe 1f87 873d 377b a6bd 742d 443e
00000350: 80bb 2bbd 2036 d73d dc15 2bbd 827c f0bd
00000360: a5b0 acbd bda5 4bbe 46ae be3d aeb8 24bb
00000370: b2ca 98bd 1b64 893e 7af8 ab3c 1b64 bdbd
00000380: 085a 393e 4a9b 2f3e 56cf 0abe 6a89 9c3d
00000390: fadb 50bd da46 a53d a829 6ebd 1fb5 0b3d
000003a0: 5ac7 c8bd 2c75 f63d 63c2 59bd 89b1 3c3e
000003b0: d1a5 a1bd ea68 3b3d 767e 403c aea7 d3bd
000003c0: 0456 4e3e 97de 143e 6427 323e d67b b4bd
000003d0: 67bd 5ebd 12e3 95bd 6bfd 3e3d 2e6a 18bd
000003e0: ab15 023e e88c 5ebd 3a71 253e 02f8 f9b8
000003f0: 0d0d 113e 1e72 e93b 1326 773e ebcc e9bc
0.112185456 -0.01663838 0.11953066 -0.09459207 0.081200495 0.06195742 0.09590157 -0.040929448
0.027613455 -0.13748111 0.15909046 0.23183018 0.05135897 0.19693646 0.061905496 -0.09240231
-0.11620436 0.02007289 0.03296489 -0.04124488 0.06221885 0.012614176 0.07685351 -0.00022690624
-0.021037772 0.10115246 0.036826883 -0.038826194 -0.0076438794 0.075002365 -0.14361975 -0.0879066
-0.041446853 0.16261286 0.13194509 -0.013163217 -0.07350509 0.042722348 0.056155108 -0.12233449
0.15120167 0.080729425 0.03229033 -0.013683768 -0.11894387 -0.11868828 0.08323841 -0.072254226
-0.1059146 -0.020164084 0.12195864 0.035897247 -0.022700451 -0.1052672 0.14269336 0.038173355
0.10527213 -0.12658189 0.04812793 0.12600249 -0.0728849 0.12405659 -0.15295547 0.02526747
0.14855902 -0.10225348 -0.061261997 0.10230008 0.03804992 0.15476273 -0.029655008 0.15156947
-0.02679451 -0.13175008 0.019002896 0.19024079 0.085281275 -0.12773953 0.0006018412 0.09932453
0.17139246 -0.09690992 0.039200343 0.1233729 -0.070742175 0.044001773 -0.16053596 0.06595108
-0.1431393 0.07160508 0.17755707 -0.060750246 0.1823865 -0.023050938 -0.031848136 0.07144714
0.007163516 -0.075722605 0.0047136988 -0.04930325 0.058982734 -0.08082769 0.061826438 0.14004079
-0.13386561 0.038573727 -0.17701204 0.10455532 -0.02507454 -0.10558273 -0.12493019 -0.14608969
0.030291047 -0.02823107 0.14038116 -0.00053201267 -0.029494965 0.19003017 -0.071944386 0.15408051
-0.07625412 0.1034679 -0.14259815 0.1780859 -0.08412335 0.05454042 0.014302469 -0.040039863
-0.07215997 0.020835198 0.10991381 0.102758355 0.153528 0.03399156 0.106720656 0.0641102
-0.074457176 0.109447226 0.027974615 0.037056886 -0.090514705 -0.10829612 -0.05579054 -0.010065242
0.052240044 0.11362756 -0.048299383 0.043252327 -0.16732961 0.1463431 -0.07065663 0.09159144
-0.13258308 0.2080598 0.037449434 -0.017435005 -0.15048602 -0.12124442 -0.006923713 0.095808685
-0.13319555 -0.17710748 0.116648115 -0.19193996 -0.024543716 0.13398294 -0.09446074 0.12009351
0.03716658 0.23250881 -0.10629075 0.17438056 -0.056285363 -0.050440233 0.06786067 0.16763401
-0.17416853 0.1921571 -0.16228355 0.02851053 0.23047459 -0.12652166 0.0891816 0.15398316
-0.08010101 -0.09235683 0.116357975 0.034461882 -0.19202293 0.099856496 -0.19969025 -0.0024250196
0.07816975 0.11532303 -0.048666973 -0.035889808 -0.066575594 -0.037605375 -0.012832209 0.21384911
0.029570537 0.108246036 0.14225596 0.21711709 0.11937391 -0.09307897 0.20140268 0.1398045
-0.15168768 0.06617569 -0.0812897 0.19157964 -0.04192686 0.105083704 -0.041768894 -0.11742498
-0.0843213 -0.19887443 0.09310584 -0.0025134492 -0.07460536 0.26834187 0.020992506 -0.09247609
0.1810075 0.17149082 -0.13555655 0.07643397 -0.050991036 0.080701545 -0.058145195 0.034108277
-0.09803648 0.120340675 -0.053163897 0.184271 -0.07892955 0.04575435 0.011748901 -0.10334717
0.2015 0.14538036 0.17397839 -0.08812682 -0.054379847 -0.07318701 0.046628397 -0.037210636
0.12703578 -0.054333597 0.16156474 -0.0001191944 0.14165135 0.0071241995 0.24135618 -0.028540095

bias f4 [50]
00000000: 555a 98bd eecd 80bd 8632 9abd 037d 4a3e
00000010: b5ca ed3d 0a32 343c dffa 593c 8bd6 ca3d
00000020: a65c 0fbe 59ac d5bd 91fc a7bc f2a9 b03d
00000030: d204 163c ed8f 0abd ea80 2a3d 1e6e 2e3e
00000040: 50a8 e8bd f194 cd3c 3a64 39bc c37b f53c
00000050: b0e8 a73c 9b8b e13d cf7a bd3d 0d3c 803e
00000060: bf78 c3bd bab1 653e f8ec 63bd 35fb 8fbd
00000070: 57d1 073e 487c 0fbd 6eb0 573d 201d b83d
00000080: 2aa1 4bbd e0d3 20be 8366 8c3d 83a6 303e
00000090: e021 91bd 02c9 3e3d 759d 743d 5b2a 343e
000000a0: 4021 193d e6c0 323d f594 d2bd e7ae 8a3d
000000b0: ef65 0bbe 5238 943d 10e9 0b3d 1729 cf3b
000000c0: 80d9 ebbd 73a3 1b3d
-0.074391045 -0.06289278 -0.07529168 0.1977425 0.11610929 0.010998258 0.013304441 0.09904202
-0.14000186 -0.10433263 -0.020506175 0.086261645 0.009156423 -0.033828665 0.04162685 0.17034194
-0.11360228 0.025095435 -0.0113154 0.02996624 0.020496696 0.11012956 0.092519395 0.25045815
-0.09544515 0.22431079 -0.055645913 -0.07030336 0.1326345 -0.035030633 0.05265849 0.0898993
-0.049714245 -0.15705824 0.0685549 0.17251019 -0.07086539 0.046578415 0.059720475 0.17594282
0.037385225 0.043640994 -0.102823175 0.06771641 -0.13613103 0.07237305 0.034157813 0.006322037
-0.11516094 0.037997674

weight f4 [50, 50]
00000000: 75ce 583d fad7 05be 7e08 b4bd 3754 cdbd
00000010: 4ca8 95bd 0f40 cc3d 963f d5bd f2ee 5d3c
00000020: 6722 d5bd 192c 00be 13a0 293e 2e78 b43c
00000030: 7a3e c43d 1d13 373e b22c 7a3d d7ca bc3d
00000040: ba07 7bbd c765 33bc 4481 813c 8cfe 9ebd
00000050: e402 8f3d bd4c afbd 9f47 aabd 4e07 c83d
00000060: e5d4 27bd cb25 19be 3e09 95bc 4cd3 173e
00000070: 75e4 553d 6c8c 30bd c705 a33d c6d6 d73d
00000080: 84cf 093d 0f1b cbbd b323 8e3d a352 81bd
00000090: 2351 9e3d 5f65 2dbd a0af 643d 8d1b d4bd
000000a0: 4cbd 24be ae2f 20bd f946 1e3e 7bd4 ecbd
000000b0: 9fb8 183e 53a1 cdbd 42b0 903d e462 b93a
000000c0: f883 96bd 3680 1f3c 371e 9ebb aa0a 73bd
000000d0: 7aa2 323d 6b3f 08be f488 a73c a28b bb3d
000000e0: 9041 e8bb 02d3 b5bd 20e9 953d 14ba 843d
000000f0: 8367 b6bd 61b6 203e 6bef 52be 9202 bf3d
00000100: eccc 973d 6dd2 863d 9cbb c23c 77b0 eebc
00000110: 0eef a4bc 4d46 b5bd 455f 903d 0f92 ed3b
00000120: 447a 89bc 2037 173e 67e5 3a3e 8af2 073e
00000130: 7cdd fabc 6b20 5bbd 0fdb 313c 6061 fbbd
00000140: 3e1c 8d3d 0759 a93d ae06 313d c00c 153d
00000150: cc55 233e 347f 2a3e 28b4 d73c 092a c9bc
00000160: fda8 3a3e bd6f 323e 9d4a 95bd 26cc dd3d
00000170: 4bdd 763d d87e 883d 2c32 83bd 61e9 5d3e
00000180: 1833 fd3d 46f9 a6bd 06c1 0b3e 01e3 1f3e
00000190: ed91 a93d 5adc d73d dbbd ddbd bf75 743d
000001a0: 40ee 9abc 2cac a5bd cb27 5d3d da64 e5bd
000001b0: 8ab3 d1bc 7d5b bf3d 9fa2 023e 2db3 c1bd
000001c0: e0ed eabc d96a 08be a740 d2bd fe7d c0bc
000001d0: 6fcc e6bd 1a37 95bd a181 b5bd c098 14bc
000001e0: 634b 0ebe da8a e03a 05c8 78bd 1555 3539
000001f0: 3c64 3f3d e74c 033e aa41 b43d 8164 0abe
00000200: 7402 a83c 40df b03d e7e2 9bbd 9e0b b23c
00000210: a99f a13d eaed 813c d6f8 1a3d 07f9 7abd
00000220: 0774 6b3d 85d2 b7bd 2f9d a73b 7fb4 b6bc
00000230: 75c1 af3d 4085 fb3c 3657 95bd 5bf2 b7bd
00000240: a130 6d3d 6d8c 03bc df3d be3d 793c f33d
00000250: a607 92bd 8230 8e3d 2dca 943d 4ab8 92bd
00000260: 6883 aa3b 1ebd d9bd ed92 6dbe 6257 443e
00000270: 83e7 663e f839 11be 4ef8 523e 0713 f03d
00000280: 5e1c d83d 3141 873d afbb 05bd bce9 3b3e
00000290: 896c 233e 5e7d a43d 6f2d 8b3e b41a 763d
000002a0: 3376 a33d e314 503d 0962 163e 9aff a03c
000002b0: 6c52 e73d 7be9 90bd 8b6b 183d fa00 96bd
000002c0: 6cda 8f3c 6939 96bd f89f 273e 5df3 ca3b
000002d0: 426b 94bd 671a 0abe d2d8 cebd af63 d53c
000002e0: 09c5 bdbc 4fab 073e 60b7 b83e 7df9 f2bd
000002f0: 77cd dd3d 319b a63b 5ea4 dabd 4a6a b53d
00000300: 288e 043e a873 b73d 1073 b93d 6b86 f43d
00000310: d1a4 963d 8113 f43d 76f0 83bd 5e28 0dbe
00000320: 05b1 063d 5a0f ee3d 94b6 f13d 2ff1 383d
00000330: c3a1 16be cfda d63d d8e6 453d b90e ce3d
00000340: 4ecf ebbc d239 0fbe 5476 e2bd 45ab b6bd
00000350: 5412 aa3d 175f b7bc b8c5 b5bd fde7 babd
00000360: fb4d 6fbd d39c 773d 210e adbd 3a3b 083e
00000370: 3787 bbbd a514 3a3d 69b1 1d3b 35a9 763d
00000380: e74f f9bc dcc0 013b 5c2f 3e3d c8a0 ca3d
00000390: 6566 5ebd 5dd2 c43d c866 4bbd 5da1 903b
000003a0: 76de c9bd 9573 9dbc 4e84 8ebd 3890 a8bc
000003b0: e2d5 81bd 37e7 223d 3a7c a7bc 309b 01bd
000003c0: 88ed 593c 2061 943d bca4 6abd 2eec e83d
000003d0: 23ca 66bd 0b12 83bd 0a8e 933d 461d 813d
000003e0: 75b0 093e f0b4 fbbd 31fe ddbd 886b b4bd
000003f0: 251b 8bbd 8ef5 5d3d 91b3 45bc cec0 efbd
0.052931268 -0.1307067 -0.08790682 -0.10025828 -0.07307491 0.09973156 -0.10412519 0.0135457385
-0.10406952 -0.12516822 0.1656497 0.022029962 0.09582229 0.17878385 0.06107778 0.09218376
-0.061286665 -0.010949559 0.015808709 -0.07763395 0.06982973 -0.085595585 -0.08314442 0.09767018
-0.040974516 -0.14955823 -0.018192884 0.14826697 0.052219827 -0.043102667 0.07960086 0.10539012
0.033645168 -0.099172704 0.06940403 -0.0631459 0.07730319 -0.042333003 0.05583155 -0.103568174
-0.16087836 -0.03910797 0.15456761 -0.11563965 0.14914177 -0.10040536 0.070648685 0.0014143852
-0.0734939 0.009735158 -0.0048253792 -0.059336342 0.04361198 -0.13305442 0.020451047 0.09157492
-0.007087894 -0.08878137 0.07319856 0.06480804 -0.08906462 0.15694572 -0.20599143 0.09326662
0.074121326 0.06583104 0.0237711 -0.02913688 -0.020133521 -0.088512994 0.07049421 0.0072500776
-0.016781934 0.14767122 0.18251573 0.13276115 -0.03062319 -0.053497713 0.01085545 -0.12274432
0.068901524 0.08268934 0.04321926 0.036389112 0.15950698 0.16650087 0.026331022 -0.024556177
0.18228526 0.17425437 -0.07289622 0.10829954 0.060269635 0.066648185 -0.06406054 0.21671058
0.12363261 -0.08153014 0.13647851 0.15613939 0.08279786 0.105400756 -0.10827228 0.059682604
-0.018912435 -0.0808948 0.053993028 -0.112008765 -0.025598306 0.09343622 0.12757348 -0.09458003
-0.02867788 -0.13322009 -0.10266238 -0.023497578 -0.11269461 -0.072859004 -0.088626154 -0.009069622
-0.13895945 0.0017131225 -0.06073763 0.000172932 0.04672645 0.12822305 0.08801587 -0.13514902
0.020508982 0.086363316 -0.076116376 0.021734055 0.07891781 0.015860517 0.037834965 -0.061272647
0.0574837 -0.089757 0.0051151733 -0.022302864 0.08581821 0.030703187 -0.07292025 -0.089817725
0.057907704 -0.008029086 0.09289145 0.118767686 -0.07130365 0.06942846 0.072651245 -0.071640566
0.005203653 -0.10631774 -0.23200579 0.19173959 0.22549252 -0.1418227 0.20602533 0.11722379
0.105522856 0.06604231 -0.032649692 0.18350881 0.15959372 0.080317244 0.271831 0.06008406
0.07981529 0.05080117 0.14685835 0.01965313 0.112950176 -0.07075783 0.037211936 -0.07324405
0.017560206 -0.07335169 0.16369617 0.006193562 -0.0724702 -0.13486634 -0.10099949 0.02604851
-0.023165243 0.13248943 0.36077404 -0.11863992 0.10830205 0.005084418 -0.10675882 0.08858164
0.12944853 0.089576066 0.090551496 0.11939701 0.07355655 0.119177826 -0.06442349 -0.1378493
0.032883663 0.11624022 0.11802402 0.045151886 -0.14710145 0.10490953 0.048315853 0.10061402
-0.028785374 -0.139869 -0.110577255 -0.08919386 0.08304277 -0.02238421 -0.088756025 -0.091262795
-0.058423977 0.060452294 -0.084499605 0.13303843 -0.091566496 0.045429844 0.0024062044 0.060219962
-0.030433608 0.001979879 0.046431884 0.09893948 -0.05429687 0.09610436 -0.049658567 0.0044137673
-0.09856884 -0.019220153 -0.06958829 -0.020576581 -0.06339623 0.039771285 -0.020444978 -0.03164214
0.013301261 0.072450876 -0.05728601 0.11373173 -0.056345116 -0.06399926 0.07204826 0.063044116
0.1344622 -0.122903705 -0.10839499 -0.088095725 -0.06792287 0.054189257 -0.012066738 -0.117066965

bias f4 [50]
00000000: d918 cc3d 40e7 483d bb63 ddbd 8059 0b3e
00000010: b2cb 56bd 2558 5a3d a2bf 923d f827 d23d
00000020: beb1 0fbe 7b53 9dbd 2dc7 c7bd 5952 a1bd
00000030: 9aed 213e 016c d9bd 23c1 b73d c259 2c3e
00000040: 419d 053e 8b8b 3d3d 8742 c9bd ec5d c6bd
00000050: 54b1 4cbd 19e8 043d e055 463e 35b0 9bbd
00000060: 39da 8a3d 6065 58bd 0df0 8bbd f5f1 23bc
00000070: 82f7 20be f890 be3d c4dd f93c 2bd5 4f3d
00000080: 4ab4 c23d 48cd 1f3e a58b a83d 19b5 05be
00000090: ba42 213e d467 303e e8e3 8dbd cc96 4c3e
000000a0: 2bb8 e63d 2132 913d a6cb 673d 903d 78bd
000000b0: 8d13 1c3d 4323 04bd fe9e e4bd 3da7 26bd
000000c0: a3fb 1dbd 32ab d1bd
0.09965677 0.049048662 -0.10810038 0.1360836 -0.052440353 0.053306717 0.07165457 0.1026153
-0.14032647 -0.07681938 -0.09754787 -0.07877035 0.15813294 -0.10616303 0.08972385 0.16831115
0.13048269 0.046275657 -0.09827142 -0.09685883 -0.0499738 0.032447908 0.19368696 -0.07601968
0.06779904 -0.052831054 -0.068328954 -0.0100064175 -0.15719417 0.09304994 0.030501254 0.050740402
0.09507044 0.15605652 0.0822976 -0.13057365 0.1574811 0.17227107 -0.06928235 0.199794
0.11265596 0.070896395 0.0565907 -0.060605586 0.038104583 -0.03226019 -0.11163138 -0.040686835
-0.038570058 -0.10237731

weight f4 [50, 50]
00000000: c515 d8bb bc3c 073e 1d6d 073e 51df a8bc
00000010: cc8a a1bc 446f ebbd 282e abbc bffd a23d
00000020: 8f55 fbbd a725 24bd c516 a53d e444 ec3d
00000030: 2cd7 8db9 453e 7abd be6c bcbc edd0 b7bd
00000040: b04f 09be 4fae c63d 4dad 6ebd 39b5 36bd
00000050: 9ed5 4f3d 7264 b8bd e0fc f43d 15b6 1e3e
00000060: 509f 633d 689a 0cbe 4648 ae3d a259 693d
00000070: 3208 e73d 978f e1bc 6ba8 413e 0228 2abe
00000080: 4e72 9d3d f4f8 97bd d235 4a3d 91bb f33d
00000090: 07c0 60be b289 29be 3b2d f8bd 2bb5 7cbd
000000a0: e355 99bd ee14 1dbe ec03 00be 683f 0fbd
000000b0: 296e d43d 5a1c 043e 4d1b 10be cdfc b1bc
000000c0: 3735 72bc 33b3 a43d ac7a bdbd 2b18 873e
000000d0: 0675 043d ad9d a03d 1d54 06bd 2965 eebc
000000e0: da42 4abe 9a21 4a3e 1945 02be fc96 0c3e
000000f0: ee79 243e 6648 85bd ad39 88bc 6cad 513d
00000100: 559d 72bd ada1 f1bd 5819 313d c784 02be
00000110: 8607 b0ba a96a 303d bb47 edbd 7d76 33bd
00000120: 7bdb 3f3e 7da9 623d 3a99 04be d7ab bebd
00000130: a728 3bbc d001 fc3c a10c 1d3c 8eff 873e
00000140: 4166 2c3e daaa 3ebe 5289 9dbd 3109 c43b
00000150: e74b f63d 8f4f c1bd 9ee9 0cbe a5b9 0bbe
00000160: bd45 9fbd f4d7 d63c 1dcb babd b154 5cbd
00000170: f5ff 393c bb1c 623c ffd2 1ebe c4b2 083e
00000180: 47ab 83be c231 b7bd 4a3e 2f3d 49ea 023d
00000190: b6a4 87bd 364b 923d cf63 98bd d3ea 93bc
000001a0: ba7c 583c ea2a 14bd c4e7 7e3d af5c 14bd
000001b0: 8c16 e4bd 22e8 9c3d 2b2b edbd d025 96bd
000001c0: eafc b03d 4ba1 953d ba8d b13d e246 12bd
000001d0: f100 f0bd 6dc1 e43d 196e a33d 704a 8cbd
000001e0: 851b 0b3e 01ce 99bd 6780 56bd 0dea b6bd
000001f0: ace9 443e c761 8e3d 8b02 323d dab3 f13d
00000200: a506 88bd c6a9 133c d08f bbbd 26df 04be
00000210: 2ec7 e8bd a65c 033e 84ac a3bc 8119 88bd
00000220: 3430 cabd bb40 e03d 36d7 05bd ca54 83bd
00000230: 3dba 273c 39f0 d8bc 03e6 c43d 173a 0f3e
00000240: cb9c 7cbd 997f 083d b0cb 91bd c890 c2bd
00000250: ee84 a8bc 78e4 ce3d 134b f23d 3287 e8bd
00000260: 8036 b2bb 2990 95bd cd9c c93d def2 f9bc
00000270: 98df f13d 1f44 04be 394e 0e3e 6d5f 8d3c
00000280: 6f2a 8b3d 2195 e7bd a013 883d 121b b23d
00000290: 865f 81bd 8808 883d 0018 183d c65a 09be
000002a0: 965b 223d d997 013e 9f2f 463b eab9 0dbe
000002b0: 231f c7bd 98d4 eebd f365 8c3c 8d49 893d
000002c0: cf02 d63b 0067 3b3c 5740 0cbe 286b e83b
000002d0: 8668 3bbd d8e8 6fbd f73e b2bd b35f d2bb
000002e0: 17c2 853c 1a80 fdbd 8a0f 90bc a77b 0cbe
000002f0: 5028 bc3d d9f0 073d 72c1 9c3c 6509 f1bd
00000300: 35cb fa3c 8a68 e93d e3b4 98bd 53f5 d9bc
00000310: 4a55 e23d b61d 2b3d a2e5 e4bc a9f7 863c
00000320: 985d 9cbc 62da e4bd c091 6a3b 8792 0dbe
00000330: 489c bd3c 3a1d 3ebd 14ff 903d 0650 b0bd
00000340: 89a3 09be d0f3 9d3c aa8a e93d 8628 fa3d
00000350: 027a c63d 78c0 cfbc 66d4 b43d 0eca 05be
00000360: fe73 ca3d 17da 83bd e55d 0bbe 1d43 063e
00000370: 0610 fd3d 1915 0dbe 0ab6 7bbd 69b4 0ebe
00000380: d9b7 02be f0d1 7dbc 70ef 2c3c eeee e33d
00000390: c29c c23d a97e cdbd 49dd 03be e242 26bd
000003a0: e7ab 013e e6db 4bbd 5a72 803d dd73 9ebd
000003b0: 4dd1 a5bd 8836 163d bc23 d13d f039 99bd
000003c0: ffc8 063e 8e1b 0abe 34d2 f0bd 2a45 15bd
000003d0: fcd0 d2bd d43f adbd 276d 0d3e 9a63 b03d
000003e0: 9468 dfbd 200e d1bc c3a3 f4bd 1c63 4d3b
000003f0: 6a05 c83d cf30 973e 084a 36bd 7b6d 143e
-0.006594392 0.13206762 0.13225217 -0.020614298 -0.019719504 -0.114958316 -0.020896032 0.079585545
-0.122721784 -0.04007497 0.080609836 0.11536577 -0.0002705393 -0.06109454 -0.023001071 -0.08975396
-0.13409305 0.097012155 -0.05827074 -0.04460642 0.05074083 -0.090035334 0.119622946 0.15499146
0.055571854 -0.13730776 0.08509879 0.056970246 0.1128086 -0.02753429 0.18911903 -0.16616824
0.076878175 -0.07420531 0.049367733 0.1190101 -0.21948253 -0.16556433 -0.12118002 -0.061696213
-0.07487085 -0.15340015 -0.12501496 -0.03497258 0.10372574 0.1290144 -0.14072914 -0.02172699
-0.014783195 0.08041992 -0.092519134 0.26385626 0.032338165 0.07842574 -0.03279506 -0.029100971
-0.19752064 0.1973938 -0.12721671 0.13729471 0.16062137 -0.065079495 -0.016629064 0.05119078
-0.059232075 -0.11798415 0.04323706 -0.12745963 -0.0013429977 0.04307047 -0.11585947 -0.04381417
0.18736069 0.055337418 -0.12949076 -0.093101196 -0.0114232665 0.030762583 0.0095855305 0.2656216
0.16835882 -0.18619862 -0.076922074 0.005982541 0.12026196 -0.09439003 -0.13760993 -0.13645037
-0.077769734 0.026226021 -0.09120772 -0.053791706 0.011352529 0.013800795 -0.15510176 0.13349444
-0.25716612 -0.089450374 0.042784013 0.031961713 -0.06623213 0.071432516 -0.07440912 -0.018056309
0.013213331 -0.03617374 0.062232748 -0.036221202 -0.11137113 0.07661463 -0.11580499 -0.07331431
0.086419895 0.07306155 0.0866961 -0.03571213 -0.117189296 0.111697055 0.07979984 -0.06850135
0.13584717 -0.07509995 -0.052368548 -0.089313604 0.19229764 0.06952243 0.043459456 0.11801882
-0.06641892 0.009012645 -0.091582894 -0.1297575 -0.113661155 0.12828311 -0.019979723 -0.066454895
-0.09872475 0.10949846 -0.032675944 -0.064126566 0.010237274 -0.026481735 0.09614184 0.13987003
-0.061672967 0.03332481 -0.071189284 -0.09500271 -0.020571198 0.10102171 0.118307255 -0.113539115
-0.005438626 -0.07302887 0.098443605 -0.030511316 0.11810225 -0.12916611 0.13897027 0.017257417
0.06795203 -0.11307741 0.06644368 0.086965695 -0.06317048 0.06642252 0.037132263 -0.13413534
0.039638124 0.12655582 0.0030240787 -0.13840452 -0.09722736 -0.11661643 0.017138457 0.06703482
0.0065310965 0.011438131 -0.13696419 0.007092852 -0.04575398 -0.058571666 -0.08703416 -0.0064200996
0.0163279 -0.12377949 -0.017585535 -0.13719045 0.091873765 0.033188675 0.01913521 -0.1176937
0.030614475 0.11396892 -0.074563764 -0.026606238 0.11051424 0.04177638 -0.027941529 0.016475515
-0.019087598 -0.11174466 0.003579244 -0.13825427 0.02314581 -0.04641459 0.07079902 -0.08609013
-0.1344129 0.019281298 0.11403401 0.122147605 0.0969124 -0.025360331 0.08829574 -0.13065359
0.09885405 -0.06438082 -0.13610037 0.13111539 0.12356572 -0.1377758 -0.061452903 -0.13936009
-0.12765445 -0.0154919475 0.010555133 0.111295566 0.095025554 -0.10033924 -0.12877382 -0.04059113
0.12663232 -0.04977026 0.06271811 -0.07736943 -0.080965616 0.0366731 0.10211894 -0.07481754
0.13162611 -0.13487074 -0.11758843 -0.036442913 -0.10293767 -0.0845944 0.1381117 0.086127475
-0.109086186 -0.02551943 -0.119452976 0.0031339591 0.09766658 0.29529426 -0.044504195 0.14494888

bias f4 [50]
00000000: 07d4 1cbe 7572 d53d 7ba7 bdbd 8ebf 0abe
00000010: 4ab1 b9bd 0041 1b3e 7d55 71bd cc5a 223e
00000020: afe5 033e f299 bdbd 1b6b 693e d72b bb3c
00000030: 80cd ba3d c1d7 bd3d c6cd 4c3e f93d a3bc
00000040: 1648 a9bd ac79 c83d 5d52 043e e314 31be
00000050: d8cc 8cbd 5810 f0bc 91ea 61bd 5ccd b13d
00000060: a919 9fbd d416 dabd 1ec9 203e a155 163e
00000070: bec1 9b3d 3042 b7bd e207 a7bd fd0b 03be
00000080: 2bd0 9cbd b226 9e3d d33d 87bd 9136 1dbe
00000090: 639f 1dbc 5130 593e d1e7 79bd 67f5 c5bd
000000a0: 0d76 503e c0b3 253c 4924 e63d 23d6 113e
000000b0: 7114 18be c937 fcbd aafc f13b 3725 97bd
000000c0: 6f9b 21bd e319 a03d
-0.15315257 0.104222216 -0.0926046 -0.13549635 -0.09067018 0.15161514 -0.05891942 0.15854949
0.12880586 -0.09257878 0.22794764 0.022848053 0.09121227 0.092696674 0.20000371 -0.019927012
-0.082657024 0.09788832 0.12922044 -0.17293124 -0.06875008 -0.029304668 -0.05515534 0.08681747
-0.07768566 -0.10648885 0.1570172 0.14681102 0.07605313 -0.08948171 -0.081558004 -0.12797542
-0.076568924 0.07722224 -0.06603589 -0.15352847 -0.00962052 0.21209837 -0.061012093 -0.096659474
0.20357533 0.0101136565 0.112373896 0.14241843 -0.14851548 -0.12315328 0.007384856 -0.07380145
-0.039454874 0.078174375

weight f4 [10, 50]
00000000: 9a0e dcbd 28ad c73e 4f9a bb3d 0492 2dbc
00000010: aac5 0fbe 9a6d 043f 015f 29be ac8a 50bd
00000020: 8761 7fbe bdf7 a93d fe3a 36be 6885 0a3e
00000030: 4446 8abe 6b65 f13d 6a8b 6a3d f0de c03d
00000040: f4b9 343d 93d6 babd 4984 243e 4757 17be
00000050: 8321 41bd ad78 003e 543d 90be cbba e2be
00000060: 0cce 5abc a949 11be 3730 ca3e 3069 54be
00000070: c138 8fbd 00cd 80bb 786c 8ebd f970 16be
00000080: b6a2 00be eef8 16be 4dfb 293e 64b8 363d
00000090: 81bf 86bd 4cfd 713e 99d5 90be c84f 3bbe
000000a0: ce13 5c3e 438b 13be 06a1 9cbd 2363 6dbe
000000b0: 14b4 febb 8e59 40be aa02 8a3c 53b4 b4bc
000000c0: 0ccb 5f3e 3a29 5ebe 22d3 92bd 55f9 7fbe
000000d0: c6d4 2abe fc0a 0f3e 239e cdbd f0be 86be
000000e0: 571c c43e 4eaf 54be fa4b 1d3e e138 913e
000000f0: c7ac 82be 7260 56be e1a4 fdbc b7d7 ab3c
00000100: 1a65 3abe a065 81bd 896f 073e ca72 9c3e
00000110: 4b5a b0be 8d02 973e 3b6c 9abd 1050 18bc
00000120: 0718 f93d 03f0 393e 33c5 ec3d ac71 b7bd
00000130: 2eb3 dbbe 8f87 8f3e b413 58be 40ce c53c
00000140: 6c11 aa3d e2c3 3b3e 02b9 fb3d 6d9f 66be
00000150: a485 9abe 9a1b a33d 954f 27be 671c a5be
00000160: a010 263e 22b0 1c3e c648 40be 7985 373c
00000170: a5d7 9c3e 4406 613d 56ba c2be 099c 963e
00000180: d59a 1b3e 2160 32be 4a65 fbbd 9c55 4b3e
00000190: 3539 1e3e 4628 293e ddc3 303e 8989 0b3e
000001a0: 6052 a6bb 7efa 823e cd7e 993d 441e 1dbd
000001b0: bf2d f73d 03b1 a13d caa9 df3d 8bb8 53be
000001c0: 2723 99be 0f88 0fbe cd45 48be 467e b7be
000001d0: 7ad5 f23d 97f2 143d 8f0e ae3d 2fe2 10be
000001e0: 18ca 00bd 6897 543d c124 403e cfac 01bd
000001f0: 03d6 ce3c 2cb5 b43d 9bb3 eebd b67b 103c
00000200: 0caf 4c3e 00f5 85bd 788f 8f3d 5ff6 2cbe
00000210: 0038 fabd ca81 01be 0620 813e 5c8d c7bc
00000220: de66 62bc cc32 d63d 7c62 39bd 038e 8b3e
00000230: 9a54 ffbd 3de2 ae3e 7957 24bd 5271 7bbe
00000240: dfdd d93e 80bf cfbd d6ff 4e3e 7d06 3d3d
00000250: 07bf 5e3d b241 6f3e 0e3e 753e b4ca f93d
00000260: a0ce 4abd 71f9 08be 58b2 f13c f7ae 02bf
00000270: 87a2 0f3e d0ce 62be 4cbe a63e 8b51 85be
00000280: 06da 6fbe 9566 103d 2f2a 20bc 8299 783e
00000290: 656c 743d 056a 953d 0f53 a0bd 010e a9be
000002a0: 7d33 443e 3b16 203e bdcc d1bd a6ff e1bd
000002b0: 75bc f6bd 45af 7b3e 5906 01be f919 a63d
000002c0: 1a71 503e ba3d 2c3e 57de 0ebe bc3e f9bc
000002d0: 3029 ed3c 700f 61be 7aa8 6dbd b767 2e3e
000002e0: eb8b 39bd d45d c1bc 412e a8bd 2487 bd3d
000002f0: 739b 9e3d c0c5 b63c 1dad 173d 1fa2 acbd
00000300: 18b4 4a3e 86c1 21bc a85b 9d3d f552 c83d
00000310: ee5f bebe a078 76be b802 8b3d eda6 d5bc
00000320: 69b2 f73d 6d83 c0bc 66d5 91bd b2fb 4abd
00000330: 2c9d ac3d 9485 413e b42f 5ebe 24bf bc3e
00000340: 1fec 49be eeab c5bb 8e73 9f3e f413 d3bd
00000350: fd8b 823e a7b4 6abe 18b0 11be 42f6 433d
00000360: c291 dabd 8ded c53e da73 0ebe 28a9 f8bd
00000370: 4281 1c3e be2e 02bd 7212 d6bc d1b8 27be
00000380: 91f6 b63d 2675 8dbd 1bec 00bf da10 9abe
00000390: 2468 963e c057 a73d c6b1 9abd 8474 93bd
000003a0: c061 1cbc 40e5 113e 1c9c 7c3e 76e2 073e
000003b0: 5ebe 133d bf5d 42be 9d02 383e 871f 95bd
000003c0: f998 63bd 2cb3 9e3d e64c 16be 25d0 693e
000003d0: 816d 463e a3ef 5e3e 4d38 17be 0a0b 10be
000003e0: d710 94bd 10f2 32be 2289 473e 7a98 583d
000003f0: a9ed 2e3d f207 eabd 39f6 aebd 49a3 98be
-0.107449725 0.38999295 0.091602914 -0.010593895 -0.14040247 0.5172974 -0.16540147 -0.050913498
-0.24939547 0.082992055 -0.17795941 0.13527453 -0.27006733 0.11786922 0.05726186 0.09417522
0.04412265 -0.09122958 0.16066088 -0.14779387 -0.0471511 0.12546034 -0.2817179 -0.44283137
-0.0133547895 -0.14188255 0.3948991 -0.20743251 -0.06993247 -0.003930688 -0.069542825 -0.14691533
-0.1256207 -0.14743397 0.1659977 0.044609442 -0.06579495 0.23631781 -0.28287962 -0.18292153
0.2149193 -0.14408593 -0.076479 -0.23182349 -0.007772932 -0.18784162 0.016846973 -0.022058642
0.218548 -0.21695414 -0.07169177 -0.24997456 -0.16682729 0.13969034 -0.10039928 -0.2631755
0.38302872 -0.20769998 0.15361014 0.28363708 -0.25522444 -0.20935228 -0.03096241 0.020976884
-0.1820263 -0.063182116 0.13226141 0.30556327 -0.34443888 0.29494134 -0.075401746 -0.009296432
0.12162786 0.18157963 0.1156105 -0.08957228 -0.4291014 0.2803311 -0.21101266 0.0241462
0.08304104 0.18336442 0.12291147 -0.22521754 -0.30180085 0.07964249 -0.16338952 -0.32248232
0.1621728 0.15301564 -0.18777761 0.011201256 0.30633274 0.054937616 -0.38032788 0.2941592
0.15195782 -0.17419483 -0.12275179 0.19856876 0.1545151 0.1651927 0.17262216 0.13626684
-0.005075738 0.25581735 0.074948885 -0.03835894 0.12069272 0.078950904 0.109210566 -0.20675866
-0.29909632 -0.14016746 -0.19557877 -0.35838526 0.11857124 0.036364164 0.084988706 -0.14148782
-0.03144273 0.051902205 0.1876402 -0.031658944 0.025248533 0.08823618 -0.11655351 0.0088185575
0.1998865 -0.06540871 0.07009786 -0.16890858 -0.122177124 -0.12647167 0.25219744 -0.024359398
-0.013818471 0.104589075 -0.045259938 0.27256784 -0.12467308 0.3415698 -0.040122483 -0.24554947
0.42552087 -0.101439476 0.20214781 0.046148766 0.054381397 0.23364905 0.23949453 0.12196866
-0.04951346 -0.13376404 0.029503986 -0.51048225 0.14026843 -0.22149205 0.3256706 -0.26038775
-0.23423013 0.03525408 -0.009775682 0.24277309 0.059673686 0.07295612 -0.07828342 -0.33018497
0.19160266 0.1563348 -0.10244129 -0.11035089 -0.12047664 0.24578579 -0.12600078 0.08110423
0.20355645 0.16820422 -0.13952003 -0.030425422 0.028950304 -0.21978545 -0.058022 0.17031752
-0.04529945 -0.023604311 -0.08211947 0.09254292 0.07744493 0.022311091 0.037030328 -0.0842936
0.19795263 -0.0098728 0.07683498 0.09781448 -0.37182564 -0.24069452 0.06787628 -0.026080573
0.12094576 -0.023500169 -0.07120781 -0.04955644 0.08428416 0.18898612 -0.21697885 0.3686458
-0.1971898 -0.0060324585 0.3114285 -0.1030654 0.25497428 -0.22920476 -0.1422733 0.04784227
-0.10672332 0.386578 -0.13911381 -0.12141639 0.15283683 -0.031782858 -0.026131842 -0.16379096
0.089337476 -0.0690711 -0.5036027 -0.30090982 0.29376328 0.08171034 -0.07553439 -0.07199958
-0.00954479 0.14247608 0.24668926 0.13269982 0.03607022 -0.18981074 0.17969747 -0.07281404
-0.055565808 0.07749018 -0.14677772 0.22833307 0.1937771 0.21771102 -0.14767571 -0.14066711
-0.072297744 -0.17475152 0.19485906 0.052879788 0.04270712 -0.11427297 -0.08543057 -0.29812077

bias f4 [10]
00000000: c8b4 2a3e 933b d3bd 26df a4bd 20d4 6cbd
00000010: 3599 9e3c 6b29 53be b400 f5bc 3be9 f63d
00000020: 1a3e c33d dbe5 1d3e
0.16670525 -0.10314097 -0.08050375 -0.057819486 0.019360164 -0.20621268 -0.029907562 0.12056204
0.09533329 0.15419714
